classifier.pt (torch, 21704 bytes, 7 tensors)

bias f4 [40]
00000000: 9d6c ee3e bbe8 02bc 48bf 4fbf 15f8 dc3d
00000010: c125 0b3e 00fd 73bf a8d3 43bd 3b69 1c3f
00000020: 845c 313e 4273 ccbe 5c91 193f 95b1 773f
00000030: 50eb 753f c086 04bf 4575 723f 50eb 0300
00000040: 05af 54bf ce40 593f d14b bdbe 196a f73e
00000050: c43e bc3e 9332 1bbf e6fe 11bf 916e 32bf
00000060: 6050 f6bc 4ea1 023e ce52 e9be 3ad4 23b9
00000070: 1bcc 0000 d5a9 803e a75b 9bba acfc 71bd
00000080: 62b4 91be 40df 1e3f 8ec3 e73d bf55 83bf
00000090: 0c4e 2bb9 93e7 6b3f a374 13bf fcd1 30bf
0.4656724 -0.007990058 -0.8115125 0.107895054 0.1358862 -0.9530792 -0.047809273 0.6109807
0.17320448 -0.39931685 0.59987426 0.96755344 0.96062183 -0.5176811 0.9471019 3.59921e-40
-0.8307956 0.8486451 -0.36971906 0.48323134 0.36766636 -0.60624045 -0.5702957 -0.6969996
-0.030067623 0.12756845 -0.45570987 -0.00015623952 7.3219e-41 0.25129572 -0.0011852876 -0.059078857
-0.28457934 0.620594 0.11316596 -1.0260543 -0.00016336906 0.9215023 -0.5759985 -0.6907041

weight f4 [40, 12]
00000000: 0000 0080 0ddb 823e 0000 0080 b4ba c0be
00000010: 0000 0000 0000 0080 0000 0000 0000 0000
00000020: 0000 0080 0000 0080 0000 0080 0000 0080
00000030: 0000 0080 7b61 60bc 0000 0000 2f6a 90bc
00000040: 0000 0000 0000 0000 0000 0080 0000 0000
00000050: 0000 0000 0000 0000 0000 0000 0000 0000
00000060: 0000 0080 f2c2 963e 0000 0000 751b 7a3e
00000070: 0000 0000 0000 0000 0000 0000 0000 0000
00000080: 0000 0080 0000 0080 0000 0000 0000 0000
00000090: 0000 0000 ec00 c13e 0000 0000 d28c fbbe
000000a0: 0000 0000 0000 0000 0000 0000 0000 0080
000000b0: 0000 0000 0000 0080 0000 0080 0000 0080
000000c0: 0000 0000 1a27 a8be 0000 0000 d0d7 003f
000000d0: 0000 0000 0000 0000 0000 0000 0000 0080
000000e0: 0000 0000 0000 0080 0000 0080 0000 0000
000000f0: 0000 0080 2d23 ef3d 0000 0080 f6b4 9a3e
00000100: 0000 0080 0000 0080 0000 0000 0000 0000
00000110: 0000 0000 0000 0000 0000 0080 0000 0000
00000120: 0000 0000 cdfe 80be 0000 0000 5c1c 813e
00000130: 0000 0000 0000 0080 0000 0000 0000 0080
00000140: 0000 0080 0000 0080 0000 0080 0000 0000
00000150: 0000 0080 b067 ea3e 0000 0000 defa 0abf
00000160: 0000 0080 0000 0080 0000 0000 0000 0000
00000170: 0000 0080 0000 0000 0000 0000 0000 0080
00000180: 0000 0000 bb7a d13e 0000 0080 6b26 b6be
00000190: 0000 0080 0000 0080 0000 0080 0000 0000
000001a0: 0000 0000 0000 0080 0000 0000 0000 0080
000001b0: 0000 0080 5794 3a3e 0000 0000 e6fb 25be
000001c0: 0000 0080 0000 0080 0000 0000 0000 0000
000001d0: 0000 0000 0000 0000 0000 0000 0000 0080
000001e0: 0000 0080 951a aa3d 0000 0080 5360 68be
000001f0: 0000 0080 0000 0080 0000 0000 0000 0080
00000200: 0000 0000 0000 0000 0000 0080 0000 0080
00000210: 0000 0000 b71f 27bf 0000 0000 f524 a33c
00000220: 0000 0080 0000 0080 0000 0000 0000 0080
00000230: 0000 0080 0000 0080 0000 0000 0000 0000
00000240: 0000 0000 94f8 9bbe 0000 0080 2f23 babe
00000250: 0000 0000 0000 0000 0000 0000 0000 0080
00000260: 0000 0000 0000 0080 0000 0080 0000 0080
00000270: 0000 0080 0c75 853e 0000 0080 ae45 8bbe
00000280: 0000 0000 0000 0080 0000 0080 0000 0000
00000290: 0000 0080 0000 0080 0000 0000 0000 0080
000002a0: 0000 0080 1fd6 98be 0000 0080 2998 b9be
000002b0: 0000 0080 0000 0000 0000 0080 0000 0080
000002c0: 0000 0080 0000 0000 0000 0080 0000 0000
000002d0: 0000 0000 649b 64a3 0000 0080 b9e1 1100
000002e0: 0000 0000 0000 0000 0000 0000 0000 0000
000002f0: 0000 0080 0000 0080 0000 0000 0000 0000
00000300: 0000 0000 6f1b c7be 0000 0080 d909 cf3e
00000310: 0000 0080 0000 0080 0000 0080 0000 0080
00000320: 0000 0080 0000 0000 0000 0080 0000 0080
00000330: 0000 0000 334d 2abf 0000 0000 5d77 3cbe
00000340: 0000 0080 0000 0080 0000 0080 0000 0000
00000350: 0000 0000 0000 0080 0000 0080 0000 0000
00000360: 0000 0000 a40e 8b3e 0000 0000 06cd 5c3e
00000370: 0000 0080 0000 0000 0000 0080 0000 0080
00000380: 0000 0080 0000 0000 0000 0000 0000 0000
00000390: 0000 0080 b6e7 7dbe 0000 0080 b9d8 7d3e
000003a0: 0000 0080 0000 0000 0000 0080 0000 0000
000003b0: 0000 0080 0000 0080 0000 0000 0000 0000
000003c0: 0000 0000 ac69 bebe 0000 0080 61c1 c53e
000003d0: 0000 0000 0000 0080 0000 0000 0000 0080
000003e0: 0000 0000 0000 0080 0000 0080 0000 0080
000003f0: 0000 0080 0792 f33e 0000 0080 6b31 3bbd
-0.0 0.25557747 -0.0 -0.37642443 0.0 -0.0 0.0 0.0
-0.0 -0.0 -0.0 -0.0 -0.0 -0.013695116 0.0 -0.017628757
0.0 0.0 -0.0 0.0 0.0 0.0 0.0 0.0
-0.0 0.29445606 0.0 0.24424537 0.0 0.0 0.0 0.0
-0.0 -0.0 0.0 0.0 0.0 0.37696016 0.0 -0.49130875
0.0 0.0 0.0 -0.0 0.0 -0.0 -0.0 -0.0
0.0 -0.32842332 0.0 0.50329304 0.0 0.0 0.0 -0.0
0.0 -0.0 -0.0 0.0 -0.0 0.11676631 -0.0 0.30216187
-0.0 -0.0 0.0 0.0 0.0 0.0 -0.0 0.0
0.0 -0.25194398 0.0 0.2521695 0.0 -0.0 0.0 -0.0
-0.0 -0.0 -0.0 0.0 -0.0 0.45782232 0.0 -0.5428904
-0.0 -0.0 0.0 0.0 -0.0 0.0 0.0 -0.0
0.0 0.40913948 -0.0 -0.35576186 -0.0 -0.0 -0.0 0.0
0.0 -0.0 0.0 -0.0 -0.0 0.1822065 0.0 -0.16209373
-0.0 -0.0 0.0 0.0 0.0 0.0 0.0 -0.0
-0.0 0.08305851 -0.0 -0.22692995 -0.0 -0.0 0.0 -0.0
0.0 0.0 -0.0 -0.0 0.0 -0.6528277 0.0 0.019915083
-0.0 -0.0 0.0 -0.0 -0.0 -0.0 0.0 0.0
0.0 -0.30463088 -0.0 -0.36354968 0.0 0.0 0.0 -0.0
0.0 -0.0 -0.0 -0.0 -0.0 0.26065862 -0.0 -0.272016
0.0 -0.0 -0.0 0.0 -0.0 -0.0 0.0 -0.0
-0.0 -0.2985086 -0.0 -0.362489 -0.0 0.0 -0.0 -0.0
-0.0 0.0 -0.0 0.0 0.0 -1.239281e-17 -0.0 1.642177e-39
0.0 0.0 0.0 0.0 -0.0 -0.0 0.0 0.0
0.0 -0.38888118 -0.0 0.404372 -0.0 -0.0 -0.0 -0.0
-0.0 0.0 -0.0 -0.0 0.0 -0.66524047 0.0 -0.18404908
-0.0 -0.0 -0.0 0.0 0.0 -0.0 -0.0 0.0
0.0 0.27159607 0.0 0.21562585 -0.0 0.0 -0.0 -0.0
-0.0 0.0 0.0 0.0 -0.0 -0.24795422 -0.0 0.24789704
-0.0 0.0 -0.0 0.0 -0.0 -0.0 0.0 0.0
0.0 -0.37189996 -0.0 0.386241 0.0 -0.0 0.0 -0.0
0.0 -0.0 -0.0 -0.0 -0.0 0.47572348 -0.0 -0.045701426

weight f4 [40, 40]
00000000: d45b 4cbd 9cf0 803b 74ff 6b3b 3d9f 2dbe
00000010: 1372 2e3e cc93 253c aed2 ae3d f810 053c
00000020: ae32 ccbc ecfa 0280 a481 e6bd c5f1 b1be
00000030: 2806 95be 3d38 0700 3864 93be ac4c 0080
00000040: 19d3 9bbe 364a c6bd 5225 493e 1f0b 6e3e
00000050: 6e31 833d 76db 3bbe 3047 0500 bd3d df3d
00000060: c5b5 68bc efe0 f8bc a3f1 4a3e abeb 6b38
00000070: 0f5b 0400 0e81 373e 1e12 4e35 abe4 183e
00000080: f848 4b3d 4bfa 523e 9539 b6bd 73db 7cbc
00000090: a608 c430 8314 8ebe d223 0500 64b4 01be
000000a0: 445c 6ebd 4982 ac38 0653 933c ee4b b1bd
000000b0: 4f4e 003e b32c 123c 8556 a0bc 8479 c4bd
000000c0: 6ae1 eebd 4255 0400 65a2 16bd 8633 d3bd
000000d0: d438 b0bd de94 0300 f890 b6bd 672f 0100
000000e0: aa76 ebbd 9aa9 adba 1d48 da3d 9ac3 213e
000000f0: a989 ba3d d1dd 90bd 7e6f 0000 a689 9c3d
00000100: 4a76 adba 3c37 13bc f400 ab3d 6458 5cb7
00000110: d614 0280 f7fb 0e3e 93f4 0129 0c8d d93c
00000120: 71ab 8abb 0979 163e fc55 95bd 3a1c 823c
00000130: 9fd7 4914 9422 afbd d209 0400 90ac 88bd
00000140: 44c3 4f3e 65f6 d0b9 2e7a a83d 68ac d13b
00000150: 0d87 59be 8fde 08be e86b 49be abd7 c13e
00000160: 0c1c 6c3e b28f 59bc 1853 bd3e 9a74 853d
00000170: fa6e 553d b94a 73bd 586c 293d 3b54 0080
00000180: 57c6 0000 ccb9 083e fc38 503e 2ea4 31bc
00000190: ae23 f8bd 42c5 a13e eec8 99bd 76da bfbc
000001a0: c565 85bc dfe2 c23e b68e eabd c0bd adb6
000001b0: aa51 0400 2384 12bd 4951 b42f 488b 94be
000001c0: 0b9c 02bd 3f30 783c 969d 39bd 1b4a 1abe
000001d0: 765e 8e2f cec3 233d abd8 9bbd 28a4 863e
000001e0: bb05 c33d eff6 be38 821c 59be a235 70bb
000001f0: 558d d53d 5b6e 393d 277a 073d b5bd a23e
00000200: 928b f63d ff1f 5dbc d916 f3bd 76eb e7bd
00000210: 861d 73be 368a 00bd 5680 74be 50b4 1600
00000220: bbaa 7abe cfda 44ba 574b e6bd b59c 9fbb
00000230: ff70 c23d fe5d aabe 7a3b 2cbd 14ad 01bc
00000240: 5674 863c ec1c 28be 856c deba 508e 5037
00000250: 9a1c 0080 6691 003c fe5e 8fa9 33c3 c13c
00000260: af66 313e 6a57 c3bb ca28 23bc 9ad0 ec3d
00000270: 5591 879b ff3a 6abe d4d7 31bd 8588 88be
00000280: 66cf 01bf e84e dfbb 93a6 b0bd 78c3 2fbc
00000290: 451c 783e ccb5 5d3d 53c8 7f3d 29fb 4dbf
000002a0: 7436 f5be feca 0180 d8d0 373e da46 f03e
000002b0: 11fa 0b3e 4176 0480 bb1c 023e 6c98 0780
000002c0: 7a7e f93e c46e 05be ad01 f5bd d3c8 b03d
000002d0: 4dc6 753e 574f 9abc 6af5 0200 443d 903d
000002e0: 3981 b13b a303 d5bc 8e38 70bc 5195 72b8
000002f0: 7a50 0200 c4a2 e83d a013 60b5 ac0f f83d
00000300: 62f5 4fbd 7200 723d e170 6f3e bd9d 023c
00000310: c503 b8b3 7916 f23d 8101 0280 7455 b6bc
00000320: 38a9 972f 343c df2a 9454 75ac 09ed 632e
00000330: d477 9fb0 3cc7 8cad e5e1 5aad b94f 23b0
00000340: 7479 062e ac9e 6eab b176 5dae 70f4 c3ad
00000350: 1c62 b5af 30b0 8e2b 0c16 aeaf 2d60 9fb8
00000360: 787c ada8 7daa 452b 1d5b 87af 0801 c4af
00000370: b782 57b0 ae36 02af b8ce 09ac fb6d 572d
00000380: c6cb 2eb7 1dd5 392f 2389 032e b061 5eb3
00000390: 3e7b c3b4 32f5 822f 08dd 0400 8596 1ead
000003a0: 1736 292a 571e a92f 8f8f a6aa 0f27 102c
000003b0: 922a 45ac b38a b4af ce6e 11ac 2687 20ae
000003c0: 9072 3d91 bca5 0580 9ebd 3b8f 7121 900e
000003d0: cc08 960d 025f 630e 8a47 db8c 6c87 05a9
000003e0: cb33 691e 6814 308b a85e db8e d413 0b8c
000003f0: b348 a00b 6cae bb0c ae06 9c0b f2b6 91ad
-0.04989226 0.003934933 0.0036010416 -0.16955276 0.17035703 0.010106038 0.08536278 0.008121721
-0.02492651 -2.73685e-40 -0.11255196 -0.34754768 -0.2910626 6.63023e-40 -0.28787398 -2.7505e-41
-0.30434492 -0.09682123 0.19643143 0.2324643 0.06405912 -0.18345436 4.84715e-40 0.109004475
-0.0142034935 -0.030380694 0.1981874 5.624785e-05 4.00008e-40 0.17920324 7.6767344e-07 0.1493098
0.049630135 0.20603292 -0.08897702 -0.01543318 1.4263335e-09 -0.27750024 4.72027e-40 -0.1266647
-0.05819346 8.2258666e-05 0.017983925 -0.086570606 0.12529872 0.00892179 -0.019572506 -0.0959349
-0.11664088 3.97927e-40 -0.036775965 -0.10312562 -0.08604589 3.2891e-40 -0.08914369 1.0884e-40
-0.11497243 -0.0013249398 0.10658286 0.15797272 0.09108288 -0.07073558 3.9996e-41 0.07643442
-0.0013234105 -0.008985337 0.08349791 -1.3133602e-05 -1.91146e-40 0.13963304 2.885589e-14 0.026556514
-0.004231863 0.14694609 -0.07291791 0.0158826 1.01904304e-26 -0.08551517 3.70865e-40 -0.06673539
0.20289332 -0.0003985643 0.08226429 0.0063987263 -0.21242924 -0.1336615 -0.19670069 0.37859854
0.23057574 -0.013278889 0.36977458 0.065163806 0.05210779 -0.059397433 0.04136309 -3.0216e-41
7.1151e-41 0.13352126 0.20334238 -0.010842366 -0.1211618 0.31595808 -0.075090274 -0.0234196
-0.016283879 0.38063714 -0.11453001 -5.1778916e-06 3.96638e-40 -0.035770547 3.2799566e-10 -0.29012513
-0.031887095 0.0151482215 -0.0453163 -0.15067331 2.5896768e-10 0.039981656 -0.076096855 0.26297116
0.095225774 9.105901e-05 -0.21202281 -0.0036653061 0.104273476 0.04527126 0.033075478 0.3178536
0.1203834 -0.013496398 -0.11869592 -0.113242075 -0.23741731 -0.03138181 -0.23877081 2.085065e-39
-0.24479191 -0.00075094117 -0.11244839 -0.004870976 0.094942085 -0.33274835 -0.04204891 -0.0079148
0.016412895 -0.16417283 -0.0016969597 1.2430901e-05 -1.026e-41 0.007847166 -6.366954e-14 0.023652649
0.17324327 -0.0059613483 -0.009958455 0.11563225 -2.2427795e-22 -0.22874068 -0.04341872 -0.26666656
-0.5070709 -0.0068148263 -0.086255215 -0.010727756 0.24229534 0.054128453 0.062446903 -0.80461365
-0.47893107 -1.64655e-40 0.17950761 0.46929055 0.13669612 -4.09763e-40 0.12706272 -6.97527e-40
0.48729306 -0.13030535 -0.1196321 0.08632054 0.24001427 -0.01883666 2.71709e-40 0.070429355
0.005417016 -0.02600271 -0.014661921 -5.7836358e-05 2.1254e-40 0.1135917 -8.347506e-07 0.12112364
-0.050771125 0.059082456 0.23382904 0.007972178 -8.5688534e-08 0.118206926 -1.8421e-40 -0.022257544
2.7586977e-10 3.9654532e-13 -3.4863544e-12 5.1824354e-11 -1.160283e-09 -1.6004635e-11 -1.2442024e-11 -5.941235e-10
3.0575945e-11 -8.4774787e-13 -5.0355e-11 -2.2277485e-11 -3.299342e-10 1.0138609e-12 -3.166608e-10 -7.599625e-05
-1.9260838e-14 7.022506e-13 -2.4621097e-10 -3.5652925e-10 -7.84023e-10 -1.1842857e-10 -1.9583623e-12 1.2245756e-11
-1.0418653e-05 1.6901365e-10 2.9907753e-11 -5.177725e-08 -3.641125e-07 2.3821084e-10 4.46633e-40 -9.014682e-12
1.5028981e-13 3.076248e-10 -2.9587137e-13 2.0485313e-12 -2.8019015e-12 -3.284036e-10 -2.0667248e-12 -3.6499824e-11
-1.4944773e-28 -5.18632e-40 -9.256331e-30 3.5530944e-30 9.2465815e-31 2.8025655e-30 -3.3785349e-31 -2.9649392e-14
1.2345628e-20 -3.391172e-32 -5.407882e-30 -1.0714137e-31 6.1739144e-32 2.8916888e-31 6.0099065e-32 -1.6565836e-11

bias f4 [40]
00000000: 24c1 023d ff64 fd3d 4e35 853e 836c 7cbb
00000010: aba3 373e 983c 8cb1 22c9 34a6 4729 9f89
00000020: 9a1b 76bc 44ae 853c 4f94 e6b7 ddb0 deb5
00000030: cebe ee3e 22ce bebd 411a 56b9 2aae dbbd
00000040: 2185 6ebe a2d7 37bd 7c8d 293f 0336 8fb3
00000050: 5a32 833c d80d c6be 6ec4 97a5 12c4 ac3e
00000060: eae5 48ba 528a 243e 1c65 1ba9 65c9 043e
00000070: b2df 123d ca15 f5af d97c 363c b47e f9be
00000080: 4e42 703e de93 573e a704 d4aa 39b9 3cad
00000090: f060 c83e d05a 3e3d 8236 c4ad f177 2ebb
0.031922475 0.12372779 0.2601723 -0.0038516826 0.17933528 -4.081425e-09 -6.272263e-16 -3.8316675e-33
-0.015021229 0.016318448 -2.7487198e-05 -1.6591763e-06 0.46629947 -0.093166605 -0.0002041841 -0.107265785
-0.23292972 -0.044883378 0.66231513 -6.668781e-08 0.01601522 -0.38682437 -2.632743e-16 0.3374334
-0.00076636544 0.1606839 -3.4504612e-14 0.12967451 0.035857864 -4.4580722e-10 0.011138164 -0.4872948
0.23462793 0.210525 -3.7661993e-13 -1.07276904e-11 0.39136457 0.046473324 -2.2306827e-11 -0.0026621784

weight f4 [10, 40]
00000000: 8bfd adaf 9628 fcac 377b 34b7 6237 8f30
00000010: 7574 7cae 38ea f29e bc9e 5a2d 788c c537
00000020: bdbf 890c ec30 c430 5869 42b4 9cc8 4081
00000030: 2b95 8d2f f9a2 80b6 c27b 0500 1724 53b7
00000040: f680 b414 b354 78b7 8e1a 3eb6 e25f d938
00000050: 5c0d cbac 5380 f235 ec8b 69a9 6fcc e0ae
00000060: 60f1 62b6 f976 89ad b83d 0600 126e 0aa7
00000070: 1a6e e988 9e1d a7af b804 5bb7 b366 1400
00000080: 4c2a 85b7 58df 84b7 c83d 8081 76fc 2ea9
00000090: badd 4c31 de7f ea30 f058 e800 0fff 6337
000000a0: 03dd c1b8 95d7 a7b7 ecb8 c8ba f887 1722
000000b0: 1aef 5eb8 4154 adaf b308 a1af c700 0000
000000c0: f61b 7a21 5158 b4a5 e778 1e80 d5f9 6632
000000d0: 618a beb5 5b7c 9bb7 3689 c1ae 9417 6ab0
000000e0: ac81 2ab0 e206 ecaf 9280 09ba dc37 a632
000000f0: c046 8fb7 0193 0e23 64af 44ae 5427 97b8
00000100: ceff 1d0b 0a51 06b8 2e6a 97ac e4f0 b3b5
00000110: 6d27 1a22 c2e0 042d 1c3f 51b5 0425 d8a2
00000120: b13c 20b7 d96a 6fb7 ceab 32b6 ab03 6faa
00000130: 33ee f2b4 5e35 0f28 2805 6d80 59dd 34b6
00000140: e0c4 183c 4a14 933e d4b8 2fbf c57a 77bc
00000150: 3c05 d53e a689 6dae 00e8 5488 5222 2885
00000160: 23ad fcba 223f 2abe 103f fbb5 9f0c 0080
00000170: 22de 8f3e 06bb 7ebc 7924 779f 454f 28be
00000180: 6d1e c73e b473 73bd e100 023f 7f39 9331
00000190: 3d08 393d 6897 0200 bee8 530b 8e35 1ebe
000001a0: 9dd6 0db2 abfa c23e 698d 8da3 5821 893e
000001b0: 4fc2 46be 2952 0580 12bf 2abe 23db 97be
000001c0: bb6f 2ebc 0de8 23bc 259f c716 dbf5 a11c
000001d0: c4a0 0dbf 8b28 5bbe 6ecd 1111 b278 ac35
000001e0: 8421 bd3e 497e 413e 9a31 8b3e a25f 5c3e
000001f0: 3fc7 f0be a39a 95b1 6303 f01e 6464 d532
00000200: dbdb e339 2bc9 6e3f a443 3339 ff5e b737
00000210: ebf3 f7be 1b0b 663e d020 6039 02dc 623f
00000220: 4858 bbbe 3e00 423f 8583 03bf cf95 90b4
00000230: 8633 9c3e 898d 57be 1f75 a0b0 3389 d03e
00000240: 64f4 42ba 5c60 eebe 32e6 6534 57c7 babe
00000250: dfe2 433f 92f4 e4b3 25f5 433f cee4 ab3f
00000260: ed55 e5be 4c97 e1be c6f3 6fb0 d9d9 5f31
00000270: 5da8 d93f da63 873f 2647 c9af f649 3a39
00000280: 1c53 a93e 2027 093e ebc1 673e 927e 353e
00000290: b2f3 fcbe 51ba 9eb1 0bf0 eaa3 26ef 7fb2
000002a0: 29ce d5b5 a9ad 513f 2fc4 8a38 2803 1738
000002b0: 48fb 9fbe 62c9 413e 382d aa39 37d8 6b3f
000002c0: 2afc 05bf b61d 4d3f 3e16 8dbf e075 66b4
000002d0: 518e 4a3e 1cf5 4dbe ba06 9bb1 2456 713f
000002e0: e259 76ba 142e e3be 8ba4 0a35 4148 8cbe
000002f0: e1cd 463f 8813 8fb4 bdcb 4a3f 214a d13f
00000300: dcad e8be 07e4 d6be 2e0e b5b2 693e 69b3
00000310: 2433 d93f 6293 773f 9e97 3531 78c5 6f39
00000320: 2e0f 25b5 4976 36b2 1b5e d8ba e91e d329
00000330: e87e 042e 634c c030 8307 2db3 a414 0180
00000340: 584c 6726 5392 9629 0630 86a4 e86e f32a
00000350: 5d0f 43b7 9bb9 ccb6 f0a1 71a6 88d2 df29
00000360: a89d c1aa a059 7930 a4b5 e2ba 0e52 0830
00000370: f988 c9b0 e1e4 52a9 e4e3 502e 322a c2b6
00000380: c4eb 0300 15e3 c7aa 56e5 0680 042b c0a7
00000390: ce8e 2329 c8d1 f8b8 7af6 0bb5 69dd 5c29
000003a0: 866a 8137 1246 1137 9c1e 9c2e 30f7 2a2a
000003b0: 1d4f 30b8 b63f 0faa 9efc 09a3 88a4 d0a7
000003c0: 423b dab4 e22e 23b4 79f4 adb6 8375 e5b1
000003d0: 05c0 6e30 0e76 2e31 eed8 11ac 38d9 8b32
000003e0: 3c98 80aa 5213 c2b1 06b1 0282 625f a6ae
000003f0: 7a6c 8f35 a17b 6135 6882 c1b4 2c80 ed30
-3.164867e-10 -7.1667767e-12 -1.0757524e-05 1.042036e-09 -5.74016e-11 -2.5719617e-20 1.2427111e-11 2.354964e-05
2.122359e-31 1.4274781e-09 -1.8105982e-07 -3.540876e-38 2.575374e-10 -3.83367e-06 5.03573e-40 -1.2584983e-05
1.8226221e-26 -1.48016725e-05 -2.8327663e-06 0.00010365226 -5.77109e-12 1.8067752e-06 -5.1857756e-14 -1.02226554e-10
-3.3817123e-06 -1.5627931e-11 5.73153e-40 -1.9211016e-15 -1.4049062e-33 -3.0398167e-10 -1.3054516e-05 1.873551e-39
-1.5874532e-05 -1.5839629e-05 -4.7108426e-38 -3.8854736e-14 2.9811944e-09 1.7062083e-09 2.133774e-38 1.358964e-05
-9.244124e-05 -2.000834e-05 -0.00153139 2.0536297e-18 -5.3151605e-05 -3.1528383e-10 -2.929191e-10 2.79e-43
8.47403e-19 -3.1284868e-16 -2.798436e-39 1.3444567e-08 -1.4196377e-06 -1.8535347e-05 -8.8009974e-11 -8.516221e-10
-6.2029915e-10 -4.293304e-10 -0.0005245294 1.9350345e-08 -1.7079874e-05 7.728965e-18 -4.472102e-11 -7.2075665e-05
3.0429546e-32 -3.2023563e-05 -4.3034664e-12 -1.3406648e-06 2.0891764e-18 7.5532375e-12 -7.7950403e-07 -5.858611e-18
-9.550874e-06 -1.42703875e-05 -2.662407e-06 -2.1228737e-13 -4.5249325e-07 7.949667e-15 -1.0011919e-38 -2.6950931e-06
0.009324282 0.28726417 -0.686414 -0.015104954 0.41605556 -5.4009817e-11 -6.4069144e-34 -7.905626e-36
-0.0019277673 -0.16625646 -1.8719311e-06 -4.528e-42 0.2809916 -0.01554752 -5.2334454e-20 -0.16436489
0.388904 -0.059436515 0.5078259 4.2847996e-09 0.045173872 2.37985e-40 4.0812218e-32 -0.15450117
-8.256078e-09 0.3808187 -1.534714e-17 0.26783252 -0.1941006 -4.88651e-40 -0.1667445 -0.29659376
-0.010646756 -0.010004056 3.2250618e-25 1.0717638e-21 -0.55323434 -0.21402185 1.1501786e-28 1.2850126e-06
0.36939633 0.1889583 0.2718628 0.21520856 -0.47027013 -4.354051e-09 2.5412389e-20 2.4842116e-08
0.0004346062 0.9327571 0.00017095968 2.1859536e-05 -0.48428282 0.22465174 0.00021374528 0.88616955
-0.3659079 0.7578162 -0.5137256 -2.693109e-07 0.3050806 -0.21050085 -1.167482e-09 0.40729675
-0.000743693 -0.4655789 2.1411032e-07 -0.3648021 0.7651805 -1.06615644e-07 0.76545936 1.3429201
-0.4479212 -0.44060743 -8.7294116e-10 3.2574603e-09 1.7004505 1.0577347 -3.661224e-10 0.00017765895
0.3307122 0.13393831 0.22632568 0.17724064 -0.49404675 -4.619587e-09 -2.5471993e-17 -1.489733e-08
-1.5929737e-06 0.8190561 6.616895e-05 3.6004145e-05 -0.312464 0.18924478 0.00032458617 0.9212679
-0.52337897 0.8012346 -1.1022413 -2.1463302e-07 0.19780852 -0.20113033 -4.5118584e-09 0.94272065
-0.0009397549 -0.44371092 5.164845e-07 -0.27398875 0.77657896 -2.6650036e-07 0.7921713 1.6350747
-0.45445144 -0.41970846 -2.1077621e-08 -5.43063e-08 1.6968732 0.96709263 2.642515e-09 0.00022866379
-6.148938e-07 -1.0620689e-08 -0.0016507538 9.3756444e-14 3.012604e-11 1.3991549e-09 -4.0286533e-08 -9.924e-41
8.024769e-16 6.6867214e-14 -5.819459e-17 4.3242428e-13 -1.1626483e-05 -6.101281e-06 -8.383314e-16 9.939711e-14
-3.4393083e-13 9.0713037e-10 -0.0017296565 4.959312e-10 -1.4663605e-09 -4.6827888e-14 4.7496132e-11 -5.7865627e-06
3.60083e-40 -3.550707e-13 -6.33283e-40 -5.3337343e-15 3.6317134e-14 -0.00011864636 -5.2140206e-07 4.9041856e-14
1.5427602e-05 8.658988e-06 7.099496e-11 1.5184794e-13 -4.203535e-05 -1.2723056e-13 -7.480279e-18 -5.7909982e-15
-4.064878e-07 -1.5197614e-07 -5.184262e-06 -6.6781367e-09 8.685677e-10 2.5387439e-09 -2.072616e-12 1.628051e-08
-2.2843001e-13 -5.6483396e-09 -9.601695e-38 -7.5657494e-11 1.0685901e-06 8.3998935e-07 -3.6043934e-07 1.7280448e-09

bias f4 [10]
00000000: 3d98 7fb6 59c5 84ba 479e 4a3d aba7 fd3c
00000010: 2d45 883d 668e f8ba 8aab 76b6 98f8 20b2
00000020: 7cbf c53d 32d8 fe3e
-3.8086575e-06 -0.0010129615 0.04946735 0.03096374 0.06653819 -0.0018963336 -3.6756705e-06 -9.369749e-09
0.09655663 0.4977432

weight f4 [1, 10]
00000000: 258f aeb8 c184 693c c77d 9d3f afae 50c0
00000010: 8b89 65c0 2305 d1bb 950a 2937 4373 f2b4
00000020: 6ca3 5ac0 0568 1640
-8.323629e-05 0.014252842 1.2304009 -3.2606618 -3.58652 -0.006378786 1.0075649e-05 -4.5159877e-07
-3.4162245 2.3500988
